TransformerSpatioTemporalModel(
  (norm): GroupNorm(32, 640, eps=1e-06, affine=True)
  (proj_in): Linear(in_features=640, out_features=640, bias=True)
  (transformer_blocks): ModuleList(
    (0): BasicTransformerBlock(
      (norm1): LayerNorm((640,), eps=1e-05, elementwise_affine=True)
      (attn1): Attention(
        (to_q): Linear(in_features=640, out_features=640, bias=False)
        (to_k): Linear(in_features=640, out_features=640, bias=False)
        (to_v): Linear(in_features=640, out_features=640, bias=False)
        (to_out): ModuleList(
          (0): Linear(in_features=640, out_features=640, bias=True)
          (1): Dropout(p=0.0, inplace=False)
        )
      )
      (norm2): LayerNorm((640,), eps=1e-05, elementwise_affine=True)
      (attn2): Attention(
        (to_q): Linear(in_features=640, out_features=640, bias=False)
        (to_k): Linear(in_features=1024, out_features=640, bias=False)
        (to_v): Linear(in_features=1024, out_features=640, bias=False)
        (to_out): ModuleList(
          (0): Linear(in_features=640, out_features=640, bias=True)
          (1): Dropout(p=0.0, inplace=False)
        )
      )
      (norm3): LayerNorm((640,), eps=1e-05, elementwise_affine=True)
      (ff): FeedForward(
        (net): ModuleList(
          (0): GEGLU(
            (proj): Linear(in_features=640, out_features=5120, bias=True)
          )
          (1): Dropout(p=0.0, inplace=False)
          (2): Linear(in_features=2560, out_features=640, bias=True)
        )
      )
    )
  )
  (temporal_transformer_blocks): ModuleList(
    (0): TemporalBasicTransformerBlock(
      (norm_in): LayerNorm((640,), eps=1e-05, elementwise_affine=True)
      (ff_in): FeedForward(
        (net): ModuleList(
          (0): GEGLU(
            (proj): Linear(in_features=640, out_features=5120, bias=True)
          )
          (1): Dropout(p=0.0, inplace=False)
          (2): Linear(in_features=2560, out_features=640, bias=True)
        )
      )
      (norm1): LayerNorm((640,), eps=1e-05, elementwise_affine=True)
      (attn1): Attention(
        (to_q): Linear(in_features=640, out_features=640, bias=False)
        (to_k): Linear(in_features=640, out_features=640, bias=False)
        (to_v): Linear(in_features=640, out_features=640, bias=False)
        (to_out): ModuleList(
          (0): Linear(in_features=640, out_features=640, bias=True)
          (1): Dropout(p=0.0, inplace=False)
        )
      )
      (norm2): LayerNorm((640,), eps=1e-05, elementwise_affine=True)
      (attn2): Attention(
        (to_q): Linear(in_features=640, out_features=640, bias=False)
        (to_k): Linear(in_features=1024, out_features=640, bias=False)
        (to_v): Linear(in_features=1024, out_features=640, bias=False)
        (to_out): ModuleList(
          (0): Linear(in_features=640, out_features=640, bias=True)
          (1): Dropout(p=0.0, inplace=False)
        )
      )
      (norm3): LayerNorm((640,), eps=1e-05, elementwise_affine=True)
      (ff): FeedForward(
        (net): ModuleList(
          (0): GEGLU(
            (proj): Linear(in_features=640, out_features=5120, bias=True)
          )
          (1): Dropout(p=0.0, inplace=False)
          (2): Linear(in_features=2560, out_features=640, bias=True)
        )
      )
    )
  )
  (time_pos_embed): TimestepEmbedding(
    (linear_1): Linear(in_features=640, out_features=2560, bias=True)
    (act): SiLU()
    (linear_2): Linear(in_features=2560, out_features=640, bias=True)
  )
  (time_proj): Timesteps()
  (time_mixer): AlphaBlender()
  (proj_out): Linear(in_features=640, out_features=640, bias=True)
)